…
        "print('Test loss:', score[0])\n",
        "print('Test accuracy:', score[1])"
      ],
      "execution_count": 2,
      "outputs": [
        {
          "output_type": "stream",
          "text": [
            "__________________________________________________________________________________________________\n",
            "Layer (type)                    Output Shape         Param #     Connected to                     \n",
            "==================================================================================================\n",
            "input_2 (InputLayer)            (None, 32, 32, 3)    0                                            \n",
            "__________________________________________________________________________________________________\n",
            "conv2d_101 (Conv2D)             (None, 32, 32, 64)   1728        input_2[0][0]                    \n",
            "__________________________________________________________________________________________________\n",
            "batch_normalization_101 (BatchN (None, 32, 32, 64)   256         conv2d_101[0][0]                 \n",
            "__________________________________________________________________________________________________\n",
            "activation_101 (Activation)     (None, 32, 32, 64)   0           batch_normalization_101[0][0]    \n",
            "__________________________________________________________________________________________________\n",
            "conv2d_102 (Conv2D)             (None, 32, 32, 32)   18432       activation_101[0][0]             \n",
            "__________________________________________________________________________________________________\n",
            "dropout_100 (Dropout)           (None, 32, 32, 32)   0           conv2d_102[0][0]                 \n",
            "__________________________________________________________________________________________________\n",
            "concatenate_97 (Concatenate)    (None, 32, 32, 96)   0           conv2d_101[0][0]                 \n",
            "                                                                 dropout_100[0][0]                \n",
            "__________________________________________________________________________________________________\n",
            "batch_normalization_102 (BatchN (None, 32, 32, 96)   384         concatenate_97[0][0]             \n",
            "__________________________________________________________________________________________________\n",
            "activation_102 (Activation)     (None, 32, 32, 96)   0           batch_normalization_102[0][0]    \n",
            "__________________________________________________________________________________________________\n",
            "conv2d_103 (Conv2D)             (None, 32, 32, 32)   27648       activation_102[0][0]             \n",
            "__________________________________________________________________________________________________\n",
            "dropout_101 (Dropout)           (None, 32, 32, 32)   0           conv2d_103[0][0]                 \n",
            "__________________________________________________________________________________________________\n",
            "concatenate_98 (Concatenate)    (None, 32, 32, 128)  0           concatenate_97[0][0]             \n",
            "                                                                 dropout_101[0][0]                \n",
            "__________________________________________________________________________________________________\n",
            "batch_normalization_103 (BatchN (None, 32, 32, 128)  512         concatenate_98[0][0]             \n",
            "__________________________________________________________________________________________________\n",
            "activation_103 (Activation)     (None, 32, 32, 128)  0           batch_normalization_103[0][0]    \n",
            "__________________________________________________________________________________________________\n",
            "conv2d_104 (Conv2D)             (None, 32, 32, 32)   36864       activation_103[0][0]             \n",
            "__________________________________________________________________________________________________\n",
            "dropout_102 (Dropout)           (None, 32, 32, 32)   0           conv2d_104[0][0]                 \n",
            "__________________________________________________________________________________________________\n",
            "concatenate_99 (Concatenate)    (None, 32, 32, 160)  0           concatenate_98[0][0]             \n",
            "                                                                 dropout_102[0][0]                \n",
            "__________________________________________________________________________________________________\n",
            "batch_normalization_104 (BatchN (None, 32, 32, 160)  640         concatenate_99[0][0]             \n",
            "__________________________________________________________________________________________________\n",
            "activation_104 (Activation)     (None, 32, 32, 160)  0           batch_normalization_104[0][0]    \n",
            "__________________________________________________________________________________________________\n",
            "conv2d_105 (Conv2D)             (None, 32, 32, 32)   46080       activation_104[0][0]             \n",
            "__________________________________________________________________________________________________\n",
            "dropout_103 (Dropout)           (None, 32, 32, 32)   0           conv2d_105[0][0]                 \n",
            "__________________________________________________________________________________________________\n",
            "concatenate_100 (Concatenate)   (None, 32, 32, 192)  0           concatenate_99[0][0]             \n",
            "                                                                 dropout_103[0][0]                \n",
            "__________________________________________________________________________________________________\n",
            "batch_normalization_105 (BatchN (None, 32, 32, 192)  768         concatenate_100[0][0]            \n",
            "__________________________________________________________________________________________________\n",
            "activation_105 (Activation)     (None, 32, 32, 192)  0           batch_normalization_105[0][0]    \n",
            "__________________________________________________________________________________________________\n",
            "conv2d_106 (Conv2D)             (None, 32, 32, 32)   55296       activation_105[0][0]             \n",
            "__________________________________________________________________________________________________\n",
            "dropout_104 (Dropout)           (None, 32, 32, 32)   0           conv2d_106[0][0]                 \n",
            "__________________________________________________________________________________________________\n",
            "concatenate_101 (Concatenate)   (None, 32, 32, 224)  0           concatenate_100[0][0]            \n",
            "                                                                 dropout_104[0][0]                \n",
            "__________________________________________________________________________________________________\n",
            "batch_normalization_106 (BatchN (None, 32, 32, 224)  896         concatenate_101[0][0]            \n",
            "__________________________________________________________________________________________________\n",
            "activation_106 (Activation)     (None, 32, 32, 224)  0           batch_normalization_106[0][0]    \n",
            "__________________________________________________________________________________________________\n",
            "conv2d_107 (Conv2D)             (None, 32, 32, 32)   64512       activation_106[0][0]             \n",
            "__________________________________________________________________________________________________\n",
            "dropout_105 (Dropout)           (None, 32, 32, 32)   0           conv2d_107[0][0]                 \n",
            "__________________________________________________________________________________________________\n",
            "concatenate_102 (Concatenate)   (None, 32, 32, 256)  0           concatenate_101[0][0]            \n",
            "                                                                 dropout_105[0][0]                \n",
            "__________________________________________________________________________________________________\n",
            "batch_normalization_107 (BatchN (None, 32, 32, 256)  1024        concatenate_102[0][0]            \n",
            "__________________________________________________________________________________________________\n",
            "activation_107 (Activation)     (None, 32, 32, 256)  0           batch_normalization_107[0][0]    \n",
            "__________________________________________________________________________________________________\n",
            "conv2d_108 (Conv2D)             (None, 32, 32, 32)   8192        activation_107[0][0]             \n",
            "__________________________________________________________________________________________________\n",
            "dropout_106 (Dropout)           (None, 32, 32, 32)   0           conv2d_108[0][0]                 \n",
            "__________________________________________________________________________________________________\n",
            "average_pooling2d_5 (AveragePoo (None, 16, 16, 32)   0           dropout_106[0][0]                \n",
            "__________________________________________________________________________________________________\n",
            "batch_normalization_108 (BatchN (None, 16, 16, 32)   128         average_pooling2d_5[0][0]        \n",
            "__________________________________________________________________________________________________\n",
            "activation_108 (Activation)     (None, 16, 16, 32)   0           batch_normalization_108[0][0]    \n",
            "__________________________________________________________________________________________________\n",
            "conv2d_109 (Conv2D)             (None, 16, 16, 32)   9216        activation_108[0][0]             \n",
            "__________________________________________________________________________________________________\n",
            "dropout_107 (Dropout)           (None, 16, 16, 32)   0           conv2d_109[0][0]                 \n",
            "__________________________________________________________________________________________________\n",
            "concatenate_103 (Concatenate)   (None, 16, 16, 64)   0           average_pooling2d_5[0][0]        \n",
            "                                                                 dropout_107[0][0]                \n",
            "__________________________________________________________________________________________________\n",
            "batch_normalization_109 (BatchN (None, 16, 16, 64)   256         concatenate_103[0][0]            \n",
            "__________________________________________________________________________________________________\n",
            "activation_109 (Activation)     (None, 16, 16, 64)   0           batch_normalization_109[0][0]    \n",
            "__________________________________________________________________________________________________\n",
            "conv2d_110 (Conv2D)             (None, 16, 16, 32)   18432       activation_109[0][0]             \n",
            "__________________________________________________________________________________________________\n",
            "dropout_108 (Dropout)           (None, 16, 16, 32)   0           conv2d_110[0][0]                 \n",
            "__________________________________________________________________________________________________\n",
            "concatenate_104 (Concatenate)   (None, 16, 16, 96)   0           concatenate_103[0][0]            \n",
            "                                                                 dropout_108[0][0]                \n",
            "__________________________________________________________________________________________________\n",
            "batch_normalization_110 (BatchN (None, 16, 16, 96)   384         concatenate_104[0][0]            \n",
            "__________________________________________________________________________________________________\n",
            "activation_110 (Activation)     (None, 16, 16, 96)   0           batch_normalization_110[0][0]    \n",
            "__________________________________________________________________________________________________\n",
            "conv2d_111 (Conv2D)             (None, 16, 16, 32)   27648       activation_110[0][0]             \n",
            "__________________________________________________________________________________________________\n",
            "dropout_109 (Dropout)           (None, 16, 16, 32)   0           conv2d_111[0][0]                 \n",
            "__________________________________________________________________________________________________\n",
            "concatenate_105 (Concatenate)   (None, 16, 16, 128)  0           concatenate_104[0][0]            \n",
            "                                                                 dropout_109[0][0]                \n",
            "__________________________________________________________________________________________________\n",
            "batch_normalization_111 (BatchN (None, 16, 16, 128)  512         concatenate_105[0][0]            \n",
            "__________________________________________________________________________________________________\n",
            "activation_111 (Activation)     (None, 16, 16, 128)  0           batch_normalization_111[0][0]    \n",
            "__________________________________________________________________________________________________\n",
            "conv2d_112 (Conv2D)             (None, 16, 16, 32)   36864       activation_111[0][0]             \n",
            "__________________________________________________________________________________________________\n",
            "dropout_110 (Dropout)           (None, 16, 16, 32)   0           conv2d_112[0][0]                 \n",
            "__________________________________________________________________________________________________\n",
            "concatenate_106 (Concatenate)   (None, 16, 16, 160)  0           concatenate_105[0][0]            \n",
            "                                                                 dropout_110[0][0]                \n",
            "__________________________________________________________________________________________________\n",
            "batch_normalization_112 (BatchN (None, 16, 16, 160)  640         concatenate_106[0][0]            \n",
            "__________________________________________________________________________________________________\n",
            "activation_112 (Activation)     (None, 16, 16, 160)  0           batch_normalization_112[0][0]    \n",
            "__________________________________________________________________________________________________\n",
            "conv2d_113 (Conv2D)             (None, 16, 16, 32)   46080       activation_112[0][0]             \n",
            "__________________________________________________________________________________________________\n",
            "dropout_111 (Dropout)           (None, 16, 16, 32)   0           conv2d_113[0][0]                 \n",
            "__________________________________________________________________________________________________\n",
            "concatenate_107 (Concatenate)   (None, 16, 16, 192)  0           concatenate_106[0][0]            \n",
            "                                                                 dropout_111[0][0]                \n",
            "__________________________________________________________________________________________________\n",
            "batch_normalization_113 (BatchN (None, 16, 16, 192)  768         concatenate_107[0][0]            \n",
            "__________________________________________________________________________________________________\n",
            "activation_113 (Activation)     (None, 16, 16, 192)  0           batch_normalization_113[0][0]    \n",
            "__________________________________________________________________________________________________\n",
            "conv2d_114 (Conv2D)             (None, 16, 16, 32)   55296       activation_113[0][0]             \n",
            "__________________________________________________________________________________________________\n",
            "dropout_112 (Dropout)           (None, 16, 16, 32)   0           conv2d_114[0][0]                 \n",
            "__________________________________________________________________________________________________\n",
            "concatenate_108 (Concatenate)   (None, 16, 16, 224)  0           concatenate_107[0][0]            \n",
            "                                                                 dropout_112[0][0]                \n",
            "__________________________________________________________________________________________________\n",
            "batch_normalization_114 (BatchN (None, 16, 16, 224)  896         concatenate_108[0][0]            \n",
            "__________________________________________________________________________________________________\n",
            "activation_114 (Activation)     (None, 16, 16, 224)  0           batch_normalization_114[0][0]    \n",
            "__________________________________________________________________________________________________\n",
            "conv2d_115 (Conv2D)             (None, 16, 16, 32)   7168        activation_114[0][0]             \n",
            "__________________________________________________________________________________________________\n",
            "dropout_113 (Dropout)           (None, 16, 16, 32)   0           conv2d_115[0][0]                 \n",
            "__________________________________________________________________________________________________\n",
            "average_pooling2d_6 (AveragePoo (None, 8, 8, 32)     0           dropout_113[0][0]                \n",
            "__________________________________________________________________________________________________\n",
            "batch_normalization_115 (BatchN (None, 8, 8, 32)     128         average_pooling2d_6[0][0]        \n",
            "__________________________________________________________________________________________________\n",
            "activation_115 (Activation)     (None, 8, 8, 32)     0           batch_normalization_115[0][0]    \n",
            "__________________________________________________________________________________________________\n",
            "conv2d_116 (Conv2D)             (None, 8, 8, 32)     9216        activation_115[0][0]             \n",
            "__________________________________________________________________________________________________\n",
            "dropout_114 (Dropout)           (None, 8, 8, 32)     0           conv2d_116[0][0]                 \n",
            "__________________________________________________________________________________________________\n",
            "concatenate_109 (Concatenate)   (None, 8, 8, 64)     0           average_pooling2d_6[0][0]        \n",
            "                                                                 dropout_114[0][0]                \n",
            "__________________________________________________________________________________________________\n",
            "batch_normalization_116 (BatchN (None, 8, 8, 64)     256         concatenate_109[0][0]            \n",
            "__________________________________________________________________________________________________\n",
            "activation_116 (Activation)     (None, 8, 8, 64)     0           batch_normalization_116[0][0]    \n",
            "__________________________________________________________________________________________________\n",
            "conv2d_117 (Conv2D)             (None, 8, 8, 32)     18432       activation_116[0][0]             \n",
            "__________________________________________________________________________________________________\n",
            "dropout_115 (Dropout)           (None, 8, 8, 32)     0           conv2d_117[0][0]                 \n",
            "__________________________________________________________________________________________________\n",
            "concatenate_110 (Concatenate)   (None, 8, 8, 96)     0           concatenate_109[0][0]            \n",
            "                                                                 dropout_115[0][0]                \n",
            "__________________________________________________________________________________________________\n",
            "batch_normalization_117 (BatchN (None, 8, 8, 96)     384         concatenate_110[0][0]            \n",
            "__________________________________________________________________________________________________\n",
            "activation_117 (Activation)     (None, 8, 8, 96)     0           batch_normalization_117[0][0]    \n",
            "__________________________________________________________________________________________________\n",
            "conv2d_118 (Conv2D)             (None, 8, 8, 32)     27648       activation_117[0][0]             \n",
            "__________________________________________________________________________________________________\n",
            "dropout_116 (Dropout)           (None, 8, 8, 32)     0           conv2d_118[0][0]                 \n",
            "__________________________________________________________________________________________________\n",
            "concatenate_111 (Concatenate)   (None, 8, 8, 128)    0           concatenate_110[0][0]            \n",
            "                                                                 dropout_116[0][0]                \n",
            "__________________________________________________________________________________________________\n",
            "batch_normalization_118 (BatchN (None, 8, 8, 128)    512         concatenate_111[0][0]            \n",
            "__________________________________________________________________________________________________\n",
            "activation_118 (Activation)     (None, 8, 8, 128)    0           batch_normalization_118[0][0]    \n",
            "__________________________________________________________________________________________________\n",
            "conv2d_119 (Conv2D)             (None, 8, 8, 32)     36864       activation_118[0][0]             \n",
            "__________________________________________________________________________________________________\n",
            "dropout_117 (Dropout)           (None, 8, 8, 32)     0           conv2d_119[0][0]                 \n",
            "__________________________________________________________________________________________________\n",
            "concatenate_112 (Concatenate)   (None, 8, 8, 160)    0           concatenate_111[0][0]            \n",
            "                                                                 dropout_117[0][0]                \n",
            "__________________________________________________________________________________________________\n",
            "batch_normalization_119 (BatchN (None, 8, 8, 160)    640         concatenate_112[0][0]            \n",
            "__________________________________________________________________________________________________\n",
            "activation_119 (Activation)     (None, 8, 8, 160)    0           batch_normalization_119[0][0]    \n",
            "__________________________________________________________________________________________________\n",
            "conv2d_120 (Conv2D)             (None, 8, 8, 32)     46080       activation_119[0][0]             \n",
            "__________________________________________________________________________________________________\n",
            "dropout_118 (Dropout)           (None, 8, 8, 32)     0           conv2d_120[0][0]                 \n",
            "__________________________________________________________________________________________________\n",
            "concatenate_113 (Concatenate)   (None, 8, 8, 192)    0           concatenate_112[0][0]            \n",
            "                                                                 dropout_118[0][0]                \n",
            "__________________________________________________________________________________________________\n",
            "batch_normalization_120 (BatchN (None, 8, 8, 192)    768         concatenate_113[0][0]            \n",
            "__________________________________________________________________________________________________\n",
            "activation_120 (Activation)     (None, 8, 8, 192)    0           batch_normalization_120[0][0]    \n",
            "__________________________________________________________________________________________________\n",
            "conv2d_121 (Conv2D)             (None, 8, 8, 32)     55296       activation_120[0][0]             \n",
            "__________________________________________________________________________________________________\n",
            "dropout_119 (Dropout)           (None, 8, 8, 32)     0           conv2d_121[0][0]                 \n",
            "__________________________________________________________________________________________________\n",
            "concatenate_114 (Concatenate)   (None, 8, 8, 224)    0           concatenate_113[0][0]            \n",
            "                                                                 dropout_119[0][0]                \n",
            "__________________________________________________________________________________________________\n",
            "batch_normalization_121 (BatchN (None, 8, 8, 224)    896         concatenate_114[0][0]            \n",
            "__________________________________________________________________________________________________\n",
            "activation_121 (Activation)     (None, 8, 8, 224)    0           batch_normalization_121[0][0]    \n",
            "__________________________________________________________________________________________________\n",
            "conv2d_122 (Conv2D)             (None, 8, 8, 32)     7168        activation_121[0][0]             \n",
            "__________________________________________________________________________________________________\n",
            "dropout_120 (Dropout)           (None, 8, 8, 32)     0           conv2d_122[0][0]                 \n",
            "__________________________________________________________________________________________________\n",
            "average_pooling2d_7 (AveragePoo (None, 4, 4, 32)     0           dropout_120[0][0]                \n",
            "__________________________________________________________________________________________________\n",
            "batch_normalization_122 (BatchN (None, 4, 4, 32)     128         average_pooling2d_7[0][0]        \n",
            "__________________________________________________________________________________________________\n",
            "activation_122 (Activation)     (None, 4, 4, 32)     0           batch_normalization_122[0][0]    \n",
            "__________________________________________________________________________________________________\n",
            "conv2d_123 (Conv2D)             (None, 4, 4, 32)     9216        activation_122[0][0]             \n",
            "__________________________________________________________________________________________________\n",
            "dropout_121 (Dropout)           (None, 4, 4, 32)     0           conv2d_123[0][0]                 \n",
            "__________________________________________________________________________________________________\n",
            "concatenate_115 (Concatenate)   (None, 4, 4, 64)     0           average_pooling2d_7[0][0]        \n",
            "                                                                 dropout_121[0][0]                \n",
            "__________________________________________________________________________________________________\n",
            "batch_normalization_123 (BatchN (None, 4, 4, 64)     256         concatenate_115[0][0]            \n",
            "__________________________________________________________________________________________________\n",
            "activation_123 (Activation)     (None, 4, 4, 64)     0           batch_normalization_123[0][0]    \n",
            "__________________________________________________________________________________________________\n",
            "conv2d_124 (Conv2D)             (None, 4, 4, 32)     18432       activation_123[0][0]             \n",
            "__________________________________________________________________________________________________\n",
            "dropout_122 (Dropout)           (None, 4, 4, 32)     0           conv2d_124[0][0]                 \n",
            "__________________________________________________________________________________________________\n",
            "concatenate_116 (Concatenate)   (None, 4, 4, 96)     0           concatenate_115[0][0]            \n",
            "                                                                 dropout_122[0][0]                \n",
            "__________________________________________________________________________________________________\n",
            "batch_normalization_124 (BatchN (None, 4, 4, 96)     384         concatenate_116[0][0]            \n",
            "__________________________________________________________________________________________________\n",
            "activation_124 (Activation)     (None, 4, 4, 96)     0           batch_normalization_124[0][0]    \n",
            "__________________________________________________________________________________________________\n",
            "conv2d_125 (Conv2D)             (None, 4, 4, 32)     27648       activation_124[0][0]             \n",
            "__________________________________________________________________________________________________\n",
            "dropout_123 (Dropout)           (None, 4, 4, 32)     0           conv2d_125[0][0]                 \n",
            "__________________________________________________________________________________________________\n",
            "concatenate_117 (Concatenate)   (None, 4, 4, 128)    0           concatenate_116[0][0]            \n",
            "                                                                 dropout_123[0][0]                \n",
            "__________________________________________________________________________________________________\n",
            "batch_normalization_125 (BatchN (None, 4, 4, 128)    512         concatenate_117[0][0]            \n",
            "__________________________________________________________________________________________________\n",
            "activation_125 (Activation)     (None, 4, 4, 128)    0           batch_normalization_125[0][0]    \n",
            "__________________________________________________________________________________________________\n",
            "conv2d_126 (Conv2D)             (None, 4, 4, 32)     36864       activation_125[0][0]             \n",
            "__________________________________________________________________________________________________\n",
            "dropout_124 (Dropout)           (None, 4, 4, 32)     0           conv2d_126[0][0]                 \n",
            "__________________________________________________________________________________________________\n",
            "concatenate_118 (Concatenate)   (None, 4, 4, 160)    0           concatenate_117[0][0]            \n",
            "                                                                 dropout_124[0][0]                \n",
            "__________________________________________________________________________________________________\n",
            "batch_normalization_126 (BatchN (None, 4, 4, 160)    640         concatenate_118[0][0]            \n",
            "__________________________________________________________________________________________________\n",
            "activation_126 (Activation)     (None, 4, 4, 160)    0           batch_normalization_126[0][0]    \n",
            "__________________________________________________________________________________________________\n",
            "conv2d_127 (Conv2D)             (None, 4, 4, 32)     46080       activation_126[0][0]             \n",
            "__________________________________________________________________________________________________\n",
            "dropout_125 (Dropout)           (None, 4, 4, 32)     0           conv2d_127[0][0]                 \n",
            "__________________________________________________________________________________________________\n",
            "concatenate_119 (Concatenate)   (None, 4, 4, 192)    0           concatenate_118[0][0]            \n",
            "                                                                 dropout_125[0][0]                \n",
            "__________________________________________________________________________________________________\n",
            "batch_normalization_127 (BatchN (None, 4, 4, 192)    768         concatenate_119[0][0]            \n",
            "__________________________________________________________________________________________________\n",
            "activation_127 (Activation)     (None, 4, 4, 192)    0           batch_normalization_127[0][0]    \n",
            "__________________________________________________________________________________________________\n",
            "conv2d_128 (Conv2D)             (None, 4, 4, 32)     55296       activation_127[0][0]             \n",
            "__________________________________________________________________________________________________\n",
            "dropout_126 (Dropout)           (None, 4, 4, 32)     0           conv2d_128[0][0]                 \n",
            "__________________________________________________________________________________________________\n",
            "concatenate_120 (Concatenate)   (None, 4, 4, 224)    0           concatenate_119[0][0]            \n",
            "                                                                 dropout_126[0][0]                \n",
            "__________________________________________________________________________________________________\n",
            "batch_normalization_128 (BatchN (None, 4, 4, 224)    896         concatenate_120[0][0]            \n",
            "__________________________________________________________________________________________________\n",
            "activation_128 (Activation)     (None, 4, 4, 224)    0           batch_normalization_128[0][0]    \n",
            "__________________________________________________________________________________________________\n",
            "average_pooling2d_8 (AveragePoo (None, 2, 2, 224)    0           activation_128[0][0]             \n",
            "__________________________________________________________________________________________________\n",
            "flatten_2 (Flatten)             (None, 896)          0           average_pooling2d_8[0][0]        \n",
            "__________________________________________________________________________________________________\n",
            "dense_2 (Dense)                 (None, 10)           8970        flatten_2[0][0]                  \n",
            "==================================================================================================\n",
            "Total params: 877,898\n",
            "Trainable params: 870,282\n",
            "Non-trainable params: 7,616\n",
            "__________________________________________________________________________________________________\n",
…
